{"keras_version": "2.1.6", "config": [{"config": {"trainable": true, "output_shape": null, "name": "lambda_23", "dtype": "float32", "function_type": "lambda", "function": ["4wEAAAAAAAAAAQAAAAIAAABDAAAAcwwAAAB8AABkAQAbZAIAGFMpA05nAAAAAADgb0BnAAAAAAAA\n4D+pACkB2gF4cgEAAAByAQAAAPogPGlweXRob24taW5wdXQtNDA2LTYwOWYwY2YyMjZiYT7aCDxs\nYW1iZGE+DgAAAHMAAAAA\n", null, null], "batch_input_shape": [null, 400, 800, 3], "arguments": {}, "output_shape_type": "raw"}, "class_name": "Lambda"}, {"config": {"trainable": true, "strides": [1, 1], "name": "conv2d_421", "padding": "same", "kernel_initializer": {"config": {"distribution": "uniform", "scale": 1.0, "seed": null, "mode": "fan_avg"}, "class_name": "VarianceScaling"}, "bias_constraint": null, "kernel_size": [3, 3], "bias_initializer": {"config": {}, "class_name": "Zeros"}, "kernel_constraint": null, "data_format": "channels_last", "activation": "relu", "bias_regularizer": null, "filters": 12, "kernel_regularizer": null, "dilation_rate": [1, 1], "use_bias": true, "activity_regularizer": null}, "class_name": "Conv2D"}, {"config": {"trainable": true, "axis": -1, "name": "batch_normalization_421", "moving_mean_initializer": {"config": {}, "class_name": "Zeros"}, "beta_regularizer": null, "beta_initializer": {"config": {}, "class_name": "Zeros"}, "momentum": 0.99, "scale": true, "beta_constraint": null, "moving_variance_initializer": {"config": {}, "class_name": "Ones"}, "epsilon": 0.001, "center": true, "gamma_constraint": null, "gamma_initializer": {"config": {}, "class_name": "Ones"}, "gamma_regularizer": null}, "class_name": "BatchNormalization"}, {"config": {"trainable": true, "strides": [1, 1], "name": "conv2d_422", "padding": "same", "kernel_initializer": {"config": {"distribution": "uniform", "scale": 1.0, "seed": null, "mode": "fan_avg"}, "class_name": "VarianceScaling"}, "bias_constraint": null, "kernel_size": [3, 3], "bias_initializer": {"config": {}, "class_name": "Zeros"}, "kernel_constraint": null, "data_format": "channels_last", "activation": "relu", "bias_regularizer": null, "filters": 12, "kernel_regularizer": null, "dilation_rate": [1, 1], "use_bias": true, "activity_regularizer": null}, "class_name": "Conv2D"}, {"config": {"trainable": true, "axis": -1, "name": "batch_normalization_422", "moving_mean_initializer": {"config": {}, "class_name": "Zeros"}, "beta_regularizer": null, "beta_initializer": {"config": {}, "class_name": "Zeros"}, "momentum": 0.99, "scale": true, "beta_constraint": null, "moving_variance_initializer": {"config": {}, "class_name": "Ones"}, "epsilon": 0.001, "center": true, "gamma_constraint": null, "gamma_initializer": {"config": {}, "class_name": "Ones"}, "gamma_regularizer": null}, "class_name": "BatchNormalization"}, {"config": {"trainable": true, "pool_size": [2, 2], "name": "max_pooling2d_89", "padding": "valid", "strides": [2, 2], "data_format": "channels_last"}, "class_name": "MaxPooling2D"}, {"config": {"trainable": true, "strides": [1, 1], "name": "conv2d_423", "padding": "same", "kernel_initializer": {"config": {"distribution": "uniform", "scale": 1.0, "seed": null, "mode": "fan_avg"}, "class_name": "VarianceScaling"}, "bias_constraint": null, "kernel_size": [3, 3], "bias_initializer": {"config": {}, "class_name": "Zeros"}, "kernel_constraint": null, "data_format": "channels_last", "activation": "relu", "bias_regularizer": null, "filters": 24, "kernel_regularizer": null, "dilation_rate": [1, 1], "use_bias": true, "activity_regularizer": null}, "class_name": "Conv2D"}, {"config": {"trainable": true, "axis": -1, "name": "batch_normalization_423", "moving_mean_initializer": {"config": {}, "class_name": "Zeros"}, "beta_regularizer": null, "beta_initializer": {"config": {}, "class_name": "Zeros"}, "momentum": 0.99, "scale": true, "beta_constraint": null, "moving_variance_initializer": {"config": {}, "class_name": "Ones"}, "epsilon": 0.001, "center": true, "gamma_constraint": null, "gamma_initializer": {"config": {}, "class_name": "Ones"}, "gamma_regularizer": null}, "class_name": "BatchNormalization"}, {"config": {"trainable": true, "strides": [1, 1], "name": "conv2d_424", "padding": "same", "kernel_initializer": {"config": {"distribution": "uniform", "scale": 1.0, "seed": null, "mode": "fan_avg"}, "class_name": "VarianceScaling"}, "bias_constraint": null, "kernel_size": [3, 3], "bias_initializer": {"config": {}, "class_name": "Zeros"}, "kernel_constraint": null, "data_format": "channels_last", "activation": "relu", "bias_regularizer": null, "filters": 24, "kernel_regularizer": null, "dilation_rate": [1, 1], "use_bias": true, "activity_regularizer": null}, "class_name": "Conv2D"}, {"config": {"trainable": true, "axis": -1, "name": "batch_normalization_424", "moving_mean_initializer": {"config": {}, "class_name": "Zeros"}, "beta_regularizer": null, "beta_initializer": {"config": {}, "class_name": "Zeros"}, "momentum": 0.99, "scale": true, "beta_constraint": null, "moving_variance_initializer": {"config": {}, "class_name": "Ones"}, "epsilon": 0.001, "center": true, "gamma_constraint": null, "gamma_initializer": {"config": {}, "class_name": "Ones"}, "gamma_regularizer": null}, "class_name": "BatchNormalization"}, {"config": {"trainable": true, "pool_size": [2, 2], "name": "max_pooling2d_90", "padding": "valid", "strides": [2, 2], "data_format": "channels_last"}, "class_name": "MaxPooling2D"}, {"config": {"trainable": true, "strides": [1, 1], "name": "conv2d_425", "padding": "same", "kernel_initializer": {"config": {"distribution": "uniform", "scale": 1.0, "seed": null, "mode": "fan_avg"}, "class_name": "VarianceScaling"}, "bias_constraint": null, "kernel_size": [3, 3], "bias_initializer": {"config": {}, "class_name": "Zeros"}, "kernel_constraint": null, "data_format": "channels_last", "activation": "relu", "bias_regularizer": null, "filters": 24, "kernel_regularizer": null, "dilation_rate": [1, 1], "use_bias": true, "activity_regularizer": null}, "class_name": "Conv2D"}, {"config": {"trainable": true, "axis": -1, "name": "batch_normalization_425", "moving_mean_initializer": {"config": {}, "class_name": "Zeros"}, "beta_regularizer": null, "beta_initializer": {"config": {}, "class_name": "Zeros"}, "momentum": 0.99, "scale": true, "beta_constraint": null, "moving_variance_initializer": {"config": {}, "class_name": "Ones"}, "epsilon": 0.001, "center": true, "gamma_constraint": null, "gamma_initializer": {"config": {}, "class_name": "Ones"}, "gamma_regularizer": null}, "class_name": "BatchNormalization"}, {"config": {"trainable": true, "strides": [1, 1], "name": "conv2d_426", "padding": "same", "kernel_initializer": {"config": {"distribution": "uniform", "scale": 1.0, "seed": null, "mode": "fan_avg"}, "class_name": "VarianceScaling"}, "bias_constraint": null, "kernel_size": [3, 3], "bias_initializer": {"config": {}, "class_name": "Zeros"}, "kernel_constraint": null, "data_format": "channels_last", "activation": "relu", "bias_regularizer": null, "filters": 24, "kernel_regularizer": null, "dilation_rate": [1, 1], "use_bias": true, "activity_regularizer": null}, "class_name": "Conv2D"}, {"config": {"trainable": true, "axis": -1, "name": "batch_normalization_426", "moving_mean_initializer": {"config": {}, "class_name": "Zeros"}, "beta_regularizer": null, "beta_initializer": {"config": {}, "class_name": "Zeros"}, "momentum": 0.99, "scale": true, "beta_constraint": null, "moving_variance_initializer": {"config": {}, "class_name": "Ones"}, "epsilon": 0.001, "center": true, "gamma_constraint": null, "gamma_initializer": {"config": {}, "class_name": "Ones"}, "gamma_regularizer": null}, "class_name": "BatchNormalization"}, {"config": {"trainable": true, "strides": [1, 1], "name": "conv2d_427", "padding": "same", "kernel_initializer": {"config": {"distribution": "uniform", "scale": 1.0, "seed": null, "mode": "fan_avg"}, "class_name": "VarianceScaling"}, "bias_constraint": null, "kernel_size": [3, 3], "bias_initializer": {"config": {}, "class_name": "Zeros"}, "kernel_constraint": null, "data_format": "channels_last", "activation": "relu", "bias_regularizer": null, "filters": 24, "kernel_regularizer": null, "dilation_rate": [1, 1], "use_bias": true, "activity_regularizer": null}, "class_name": "Conv2D"}, {"config": {"trainable": true, "axis": -1, "name": "batch_normalization_427", "moving_mean_initializer": {"config": {}, "class_name": "Zeros"}, "beta_regularizer": null, "beta_initializer": {"config": {}, "class_name": "Zeros"}, "momentum": 0.99, "scale": true, "beta_constraint": null, "moving_variance_initializer": {"config": {}, "class_name": "Ones"}, "epsilon": 0.001, "center": true, "gamma_constraint": null, "gamma_initializer": {"config": {}, "class_name": "Ones"}, "gamma_regularizer": null}, "class_name": "BatchNormalization"}, {"config": {"trainable": true, "pool_size": [2, 2], "name": "max_pooling2d_91", "padding": "valid", "strides": [2, 2], "data_format": "channels_last"}, "class_name": "MaxPooling2D"}, {"config": {"trainable": true, "strides": [1, 1], "name": "conv2d_428", "padding": "same", "kernel_initializer": {"config": {"distribution": "uniform", "scale": 1.0, "seed": null, "mode": "fan_avg"}, "class_name": "VarianceScaling"}, "bias_constraint": null, "kernel_size": [3, 3], "bias_initializer": {"config": {}, "class_name": "Zeros"}, "kernel_constraint": null, "data_format": "channels_last", "activation": "relu", "bias_regularizer": null, "filters": 64, "kernel_regularizer": null, "dilation_rate": [1, 1], "use_bias": true, "activity_regularizer": null}, "class_name": "Conv2D"}, {"config": {"trainable": true, "axis": -1, "name": "batch_normalization_428", "moving_mean_initializer": {"config": {}, "class_name": "Zeros"}, "beta_regularizer": null, "beta_initializer": {"config": {}, "class_name": "Zeros"}, "momentum": 0.99, "scale": true, "beta_constraint": null, "moving_variance_initializer": {"config": {}, "class_name": "Ones"}, "epsilon": 0.001, "center": true, "gamma_constraint": null, "gamma_initializer": {"config": {}, "class_name": "Ones"}, "gamma_regularizer": null}, "class_name": "BatchNormalization"}, {"config": {"trainable": true, "strides": [1, 1], "name": "conv2d_429", "padding": "same", "kernel_initializer": {"config": {"distribution": "uniform", "scale": 1.0, "seed": null, "mode": "fan_avg"}, "class_name": "VarianceScaling"}, "bias_constraint": null, "kernel_size": [3, 3], "bias_initializer": {"config": {}, "class_name": "Zeros"}, "kernel_constraint": null, "data_format": "channels_last", "activation": "relu", "bias_regularizer": null, "filters": 64, "kernel_regularizer": null, "dilation_rate": [1, 1], "use_bias": true, "activity_regularizer": null}, "class_name": "Conv2D"}, {"config": {"trainable": true, "axis": -1, "name": "batch_normalization_429", "moving_mean_initializer": {"config": {}, "class_name": "Zeros"}, "beta_regularizer": null, "beta_initializer": {"config": {}, "class_name": "Zeros"}, "momentum": 0.99, "scale": true, "beta_constraint": null, "moving_variance_initializer": {"config": {}, "class_name": "Ones"}, "epsilon": 0.001, "center": true, "gamma_constraint": null, "gamma_initializer": {"config": {}, "class_name": "Ones"}, "gamma_regularizer": null}, "class_name": "BatchNormalization"}, {"config": {"trainable": true, "strides": [1, 1], "name": "conv2d_430", "padding": "same", "kernel_initializer": {"config": {"distribution": "uniform", "scale": 1.0, "seed": null, "mode": "fan_avg"}, "class_name": "VarianceScaling"}, "bias_constraint": null, "kernel_size": [3, 3], "bias_initializer": {"config": {}, "class_name": "Zeros"}, "kernel_constraint": null, "data_format": "channels_last", "activation": "relu", "bias_regularizer": null, "filters": 64, "kernel_regularizer": null, "dilation_rate": [1, 1], "use_bias": true, "activity_regularizer": null}, "class_name": "Conv2D"}, {"config": {"trainable": true, "axis": -1, "name": "batch_normalization_430", "moving_mean_initializer": {"config": {}, "class_name": "Zeros"}, "beta_regularizer": null, "beta_initializer": {"config": {}, "class_name": "Zeros"}, "momentum": 0.99, "scale": true, "beta_constraint": null, "moving_variance_initializer": {"config": {}, "class_name": "Ones"}, "epsilon": 0.001, "center": true, "gamma_constraint": null, "gamma_initializer": {"config": {}, "class_name": "Ones"}, "gamma_regularizer": null}, "class_name": "BatchNormalization"}, {"config": {"trainable": true, "pool_size": [2, 2], "name": "max_pooling2d_92", "padding": "valid", "strides": [2, 2], "data_format": "channels_last"}, "class_name": "MaxPooling2D"}, {"config": {"trainable": true, "size": [2, 2], "name": "up_sampling2d_81", "data_format": "channels_last"}, "class_name": "UpSampling2D"}, {"config": {"trainable": true, "strides": [1, 1], "name": "conv2d_431", "padding": "same", "kernel_initializer": {"config": {"distribution": "uniform", "scale": 1.0, "seed": null, "mode": "fan_avg"}, "class_name": "VarianceScaling"}, "bias_constraint": null, "kernel_size": [3, 3], "bias_initializer": {"config": {}, "class_name": "Zeros"}, "kernel_constraint": null, "data_format": "channels_last", "activation": "relu", "bias_regularizer": null, "filters": 64, "kernel_regularizer": null, "dilation_rate": [1, 1], "use_bias": true, "activity_regularizer": null}, "class_name": "Conv2D"}, {"config": {"trainable": true, "axis": -1, "name": "batch_normalization_431", "moving_mean_initializer": {"config": {}, "class_name": "Zeros"}, "beta_regularizer": null, "beta_initializer": {"config": {}, "class_name": "Zeros"}, "momentum": 0.99, "scale": true, "beta_constraint": null, "moving_variance_initializer": {"config": {}, "class_name": "Ones"}, "epsilon": 0.001, "center": true, "gamma_constraint": null, "gamma_initializer": {"config": {}, "class_name": "Ones"}, "gamma_regularizer": null}, "class_name": "BatchNormalization"}, {"config": {"trainable": true, "strides": [1, 1], "name": "conv2d_432", "padding": "same", "kernel_initializer": {"config": {"distribution": "uniform", "scale": 1.0, "seed": null, "mode": "fan_avg"}, "class_name": "VarianceScaling"}, "bias_constraint": null, "kernel_size": [3, 3], "bias_initializer": {"config": {}, "class_name": "Zeros"}, "kernel_constraint": null, "data_format": "channels_last", "activation": "relu", "bias_regularizer": null, "filters": 64, "kernel_regularizer": null, "dilation_rate": [1, 1], "use_bias": true, "activity_regularizer": null}, "class_name": "Conv2D"}, {"config": {"trainable": true, "axis": -1, "name": "batch_normalization_432", "moving_mean_initializer": {"config": {}, "class_name": "Zeros"}, "beta_regularizer": null, "beta_initializer": {"config": {}, "class_name": "Zeros"}, "momentum": 0.99, "scale": true, "beta_constraint": null, "moving_variance_initializer": {"config": {}, "class_name": "Ones"}, "epsilon": 0.001, "center": true, "gamma_constraint": null, "gamma_initializer": {"config": {}, "class_name": "Ones"}, "gamma_regularizer": null}, "class_name": "BatchNormalization"}, {"config": {"trainable": true, "strides": [1, 1], "name": "conv2d_433", "padding": "same", "kernel_initializer": {"config": {"distribution": "uniform", "scale": 1.0, "seed": null, "mode": "fan_avg"}, "class_name": "VarianceScaling"}, "bias_constraint": null, "kernel_size": [3, 3], "bias_initializer": {"config": {}, "class_name": "Zeros"}, "kernel_constraint": null, "data_format": "channels_last", "activation": "relu", "bias_regularizer": null, "filters": 64, "kernel_regularizer": null, "dilation_rate": [1, 1], "use_bias": true, "activity_regularizer": null}, "class_name": "Conv2D"}, {"config": {"trainable": true, "axis": -1, "name": "batch_normalization_433", "moving_mean_initializer": {"config": {}, "class_name": "Zeros"}, "beta_regularizer": null, "beta_initializer": {"config": {}, "class_name": "Zeros"}, "momentum": 0.99, "scale": true, "beta_constraint": null, "moving_variance_initializer": {"config": {}, "class_name": "Ones"}, "epsilon": 0.001, "center": true, "gamma_constraint": null, "gamma_initializer": {"config": {}, "class_name": "Ones"}, "gamma_regularizer": null}, "class_name": "BatchNormalization"}, {"config": {"trainable": true, "size": [2, 2], "name": "up_sampling2d_82", "data_format": "channels_last"}, "class_name": "UpSampling2D"}, {"config": {"trainable": true, "strides": [1, 1], "name": "conv2d_434", "padding": "same", "kernel_initializer": {"config": {"distribution": "uniform", "scale": 1.0, "seed": null, "mode": "fan_avg"}, "class_name": "VarianceScaling"}, "bias_constraint": null, "kernel_size": [3, 3], "bias_initializer": {"config": {}, "class_name": "Zeros"}, "kernel_constraint": null, "data_format": "channels_last", "activation": "relu", "bias_regularizer": null, "filters": 24, "kernel_regularizer": null, "dilation_rate": [1, 1], "use_bias": true, "activity_regularizer": null}, "class_name": "Conv2D"}, {"config": {"trainable": true, "axis": -1, "name": "batch_normalization_434", "moving_mean_initializer": {"config": {}, "class_name": "Zeros"}, "beta_regularizer": null, "beta_initializer": {"config": {}, "class_name": "Zeros"}, "momentum": 0.99, "scale": true, "beta_constraint": null, "moving_variance_initializer": {"config": {}, "class_name": "Ones"}, "epsilon": 0.001, "center": true, "gamma_constraint": null, "gamma_initializer": {"config": {}, "class_name": "Ones"}, "gamma_regularizer": null}, "class_name": "BatchNormalization"}, {"config": {"trainable": true, "strides": [1, 1], "name": "conv2d_435", "padding": "same", "kernel_initializer": {"config": {"distribution": "uniform", "scale": 1.0, "seed": null, "mode": "fan_avg"}, "class_name": "VarianceScaling"}, "bias_constraint": null, "kernel_size": [3, 3], "bias_initializer": {"config": {}, "class_name": "Zeros"}, "kernel_constraint": null, "data_format": "channels_last", "activation": "relu", "bias_regularizer": null, "filters": 24, "kernel_regularizer": null, "dilation_rate": [1, 1], "use_bias": true, "activity_regularizer": null}, "class_name": "Conv2D"}, {"config": {"trainable": true, "axis": -1, "name": "batch_normalization_435", "moving_mean_initializer": {"config": {}, "class_name": "Zeros"}, "beta_regularizer": null, "beta_initializer": {"config": {}, "class_name": "Zeros"}, "momentum": 0.99, "scale": true, "beta_constraint": null, "moving_variance_initializer": {"config": {}, "class_name": "Ones"}, "epsilon": 0.001, "center": true, "gamma_constraint": null, "gamma_initializer": {"config": {}, "class_name": "Ones"}, "gamma_regularizer": null}, "class_name": "BatchNormalization"}, {"config": {"trainable": true, "strides": [1, 1], "name": "conv2d_436", "padding": "same", "kernel_initializer": {"config": {"distribution": "uniform", "scale": 1.0, "seed": null, "mode": "fan_avg"}, "class_name": "VarianceScaling"}, "bias_constraint": null, "kernel_size": [3, 3], "bias_initializer": {"config": {}, "class_name": "Zeros"}, "kernel_constraint": null, "data_format": "channels_last", "activation": "relu", "bias_regularizer": null, "filters": 24, "kernel_regularizer": null, "dilation_rate": [1, 1], "use_bias": true, "activity_regularizer": null}, "class_name": "Conv2D"}, {"config": {"trainable": true, "axis": -1, "name": "batch_normalization_436", "moving_mean_initializer": {"config": {}, "class_name": "Zeros"}, "beta_regularizer": null, "beta_initializer": {"config": {}, "class_name": "Zeros"}, "momentum": 0.99, "scale": true, "beta_constraint": null, "moving_variance_initializer": {"config": {}, "class_name": "Ones"}, "epsilon": 0.001, "center": true, "gamma_constraint": null, "gamma_initializer": {"config": {}, "class_name": "Ones"}, "gamma_regularizer": null}, "class_name": "BatchNormalization"}, {"config": {"trainable": true, "size": [2, 2], "name": "up_sampling2d_83", "data_format": "channels_last"}, "class_name": "UpSampling2D"}, {"config": {"trainable": true, "strides": [1, 1], "name": "conv2d_437", "padding": "same", "kernel_initializer": {"config": {"distribution": "uniform", "scale": 1.0, "seed": null, "mode": "fan_avg"}, "class_name": "VarianceScaling"}, "bias_constraint": null, "kernel_size": [3, 3], "bias_initializer": {"config": {}, "class_name": "Zeros"}, "kernel_constraint": null, "data_format": "channels_last", "activation": "relu", "bias_regularizer": null, "filters": 24, "kernel_regularizer": null, "dilation_rate": [1, 1], "use_bias": true, "activity_regularizer": null}, "class_name": "Conv2D"}, {"config": {"trainable": true, "axis": -1, "name": "batch_normalization_437", "moving_mean_initializer": {"config": {}, "class_name": "Zeros"}, "beta_regularizer": null, "beta_initializer": {"config": {}, "class_name": "Zeros"}, "momentum": 0.99, "scale": true, "beta_constraint": null, "moving_variance_initializer": {"config": {}, "class_name": "Ones"}, "epsilon": 0.001, "center": true, "gamma_constraint": null, "gamma_initializer": {"config": {}, "class_name": "Ones"}, "gamma_regularizer": null}, "class_name": "BatchNormalization"}, {"config": {"trainable": true, "strides": [1, 1], "name": "conv2d_438", "padding": "same", "kernel_initializer": {"config": {"distribution": "uniform", "scale": 1.0, "seed": null, "mode": "fan_avg"}, "class_name": "VarianceScaling"}, "bias_constraint": null, "kernel_size": [3, 3], "bias_initializer": {"config": {}, "class_name": "Zeros"}, "kernel_constraint": null, "data_format": "channels_last", "activation": "relu", "bias_regularizer": null, "filters": 12, "kernel_regularizer": null, "dilation_rate": [1, 1], "use_bias": true, "activity_regularizer": null}, "class_name": "Conv2D"}, {"config": {"trainable": true, "axis": -1, "name": "batch_normalization_438", "moving_mean_initializer": {"config": {}, "class_name": "Zeros"}, "beta_regularizer": null, "beta_initializer": {"config": {}, "class_name": "Zeros"}, "momentum": 0.99, "scale": true, "beta_constraint": null, "moving_variance_initializer": {"config": {}, "class_name": "Ones"}, "epsilon": 0.001, "center": true, "gamma_constraint": null, "gamma_initializer": {"config": {}, "class_name": "Ones"}, "gamma_regularizer": null}, "class_name": "BatchNormalization"}, {"config": {"trainable": true, "size": [2, 2], "name": "up_sampling2d_84", "data_format": "channels_last"}, "class_name": "UpSampling2D"}, {"config": {"trainable": true, "strides": [1, 1], "name": "conv2d_439", "padding": "same", "kernel_initializer": {"config": {"distribution": "uniform", "scale": 1.0, "seed": null, "mode": "fan_avg"}, "class_name": "VarianceScaling"}, "bias_constraint": null, "kernel_size": [3, 3], "bias_initializer": {"config": {}, "class_name": "Zeros"}, "kernel_constraint": null, "data_format": "channels_last", "activation": "relu", "bias_regularizer": null, "filters": 12, "kernel_regularizer": null, "dilation_rate": [1, 1], "use_bias": true, "activity_regularizer": null}, "class_name": "Conv2D"}, {"config": {"trainable": true, "axis": -1, "name": "batch_normalization_439", "moving_mean_initializer": {"config": {}, "class_name": "Zeros"}, "beta_regularizer": null, "beta_initializer": {"config": {}, "class_name": "Zeros"}, "momentum": 0.99, "scale": true, "beta_constraint": null, "moving_variance_initializer": {"config": {}, "class_name": "Ones"}, "epsilon": 0.001, "center": true, "gamma_constraint": null, "gamma_initializer": {"config": {}, "class_name": "Ones"}, "gamma_regularizer": null}, "class_name": "BatchNormalization"}, {"config": {"trainable": true, "strides": [1, 1], "name": "conv2d_440", "padding": "valid", "kernel_initializer": {"config": {"distribution": "uniform", "scale": 1.0, "seed": null, "mode": "fan_avg"}, "class_name": "VarianceScaling"}, "bias_constraint": null, "kernel_size": [1, 1], "bias_initializer": {"config": {}, "class_name": "Zeros"}, "kernel_constraint": null, "data_format": "channels_last", "activation": "linear", "bias_regularizer": null, "filters": 2, "kernel_regularizer": null, "dilation_rate": [1, 1], "use_bias": true, "activity_regularizer": null}, "class_name": "Conv2D"}, {"config": {"trainable": true, "axis": -1, "name": "batch_normalization_440", "moving_mean_initializer": {"config": {}, "class_name": "Zeros"}, "beta_regularizer": null, "beta_initializer": {"config": {}, "class_name": "Zeros"}, "momentum": 0.99, "scale": true, "beta_constraint": null, "moving_variance_initializer": {"config": {}, "class_name": "Ones"}, "epsilon": 0.001, "center": true, "gamma_constraint": null, "gamma_initializer": {"config": {}, "class_name": "Ones"}, "gamma_regularizer": null}, "class_name": "BatchNormalization"}, {"config": {"trainable": true, "name": "flatten_4", "data_format": "channels_last"}, "class_name": "Flatten"}, {"config": {"trainable": true, "activation": "sigmoid", "name": "activation_4"}, "class_name": "Activation"}], "class_name": "Sequential", "backend": "tensorflow"}